lesson/checkpoint_4_epoch.pkl (torch, 496169 bytes, 20 tensors)

conv1.weight f4 [6, 3, 5, 5]
00000000: 7282 98bc d7b0 8b3d dce9 173e bbbf d3bd
00000010: 7385 9ebc 51e1 f9bc b7e5 77bd 1bd6 f5bd
00000020: 0110 5e3d ab9a 9a3d 19cc b83d 8575 733d
00000030: 48ce 7d3e 6672 e4bc c417 033e dba0 8c3d
00000040: 72bd 503e e68f e93d 21d0 833c 7cb1 f5bd
00000050: 7946 d13d 1169 2abe 3b1a ee3d 5098 043d
00000060: 5070 58bd bc8d 66bd 699f dcbd 4094 c53d
00000070: 73be e1bc 2190 b43d 3839 6f3d 7846 a6bd
00000080: 1de4 333e f693 38be aa8a 683b ab3f f6bc
00000090: 58f8 06ba e553 a1bd 8a99 08be 716f 45bc
000000a0: 95d1 29bd 02dd 9c3d e738 5bbc 41e8 be3c
000000b0: e670 d23c 2b91 09bd cfbc 42bc f47f c5bc
000000c0: b28b 883d 6187 763d ce6c 203d e853 d73d
000000d0: e079 f2bd 1c8d adbd a653 87bd 765a 083e
000000e0: fee4 cabd f09c babd 7efb 72be 8cc0 05be
000000f0: 5ac4 b3bd 1a17 533d e502 16be 917a 8c3c
00000100: 47f6 403e d7f3 acbd 4e1b 4bbd 5440 76bd
00000110: c619 873d ac21 a4bb ec8e 973c 2611 e63d
00000120: 9a65 0c3c 61fe 0e3e 5361 8abd 9e9f efbd
00000130: 66ad 1ebc f62e 8abd 17db 31bc c059 1dbe
00000140: 362e 79be 66c5 0d3e 72cc 8bbd 64a0 daba
00000150: cc36 253d b41e 85bd 824a 26be c845 c0bd
00000160: f221 b9bc ff71 a6bd c072 dfbd faec e3bd
00000170: a1bb c3bd 64ec d73b dc8e 48bd a297 9a3d
00000180: a52b 10bc b23a 5bbe 364d 963b 5a49 05be
00000190: 1002 21bc 60cc 06be 3b07 19be 23a8 59be
000001a0: d8fb a7bd 2668 b5bc d49a d43c fe3b 17be
000001b0: 27bd 36be 7c54 72bc 8e00 6dbd 7367 d8bb
000001c0: 8941 afbd 5fee 29bd a5b3 03be 270b b2bd
000001d0: 16b4 34be c46b ebbd 37b6 6bbe dc55 70bc
000001e0: 6aa1 bd3c 7f46 b4bd 9728 2dbd d92a 2a3c
000001f0: ca65 b8bd 27dc 05be a52c b0bd 75ab ebbc
00000200: 6876 4ebe e0e1 debd fd91 4abe 5c38 b0bb
00000210: 866c 1bbe 1326 b8bb fe45 14be e6e5 08be
00000220: de5c f8bd 7bcb b9bd 062a 17be d95e e1bc
00000230: e49c 23ba ab2e e4bc 2d1b 7ebd 4831 86bc
00000240: 3258 d33d 08e6 49bd 31e5 a7bd 955b e8bb
00000250: 1151 4bbd 2778 9dbd 2bae 973c 0b57 a4bd
00000260: 1e2c 9bbd b0a4 ba3d 4a46 2e3e 7aa0 9d3c
00000270: c9ee 21be 8ad9 3cbd c227 f3bc c2cb 493e
00000280: 78d7 11be 8505 983b 24a7 3c3e cb45 06be
00000290: a514 933d 5dd6 e43d 8110 de3d 77db a2be
000002a0: a336 6e3d a1db 7cbd 10f8 afbd d250 e63c
000002b0: 0462 333b a67a dcbd c286 efbc e4bb 16bc
000002c0: 9ee9 b83d 1d77 ed3d 424e b03c 895c 143d
000002d0: f9b1 473e a289 99bd e986 11be 091b bbbc
000002e0: 3260 3f3b 1e17 ebbc 0bd2 ea3c c265 a13d
000002f0: eb87 60be c351 27be 9253 07bd f237 b7bd
00000300: 87e7 bdbd 7755 2bbe 0db7 5dbc 9d66 98bd
00000310: b49b a2bd e69b ddbd e58d 123d 6b7a 863d
00000320: 7ac7 3cbd dca4 4f3d b30a fc3d 8605 6c3d
00000330: 1120 7a3d 009c e33b 72ee 0d3e a0ee 743c
00000340: d118 1b3d dfe0 6dbc d86d e83d 8d3a 483c
00000350: ee7f babd ee8f 8bbc da36 2dbd 0f10 02be
00000360: d6c1 793d 96e6 99bd 23ef 1f3c 2a60 64bd
00000370: c848 983d 7844 463c 2978 ebbb c554 b0bd
00000380: b748 fcbc e3fa 183d 24db 6dbd e340 04bd
00000390: ffe7 533d 4a4a 293d 56fe e63b 2c96 893d
000003a0: ec21 2bbd b87c a83d acdb 03bd cf5d 6bbd
000003b0: 7a56 0d3e bd16 22bd 7de8 de3d 2e76 453d
000003c0: 0ead c03d 1dcb 06bc 5139 aabd 2899 2ebd
000003d0: 5aee 62bc 394f eabd 805a 03bd 7c39 7b3d
000003e0: 8bc3 843d c7d7 fbbc ef2f d1bb ef64 723d
000003f0: 6598 7d3e 8c09 76bc dde8 ba3c e163 3bbe
-0.018616889 0.06820839 0.14835304 -0.10339304 -0.019350743 -0.030502947 -0.060521808 -0.12003728
0.05421448 0.07549032 0.090233035 0.059438247 0.24785721 -0.02788658 0.12802035 0.06866618
0.20384768 0.114043996 0.016090455 -0.11996743 0.1021852 -0.16641642 0.11626097 0.03237182
-0.052841485 -0.056287512 -0.107725926 0.09647417 -0.027556634 0.08816553 0.058404177 -0.081189096
0.17567487 -0.18025193 0.003548304 -0.030059656 -0.00051487004 -0.0787733 -0.1333982 -0.0120504955
-0.04145964 0.076593414 -0.013380266 0.023304107 0.0256886 -0.03358571 -0.011885836 -0.024108864
0.0666727 0.0601877 0.039166264 0.10514051 -0.11839652 -0.0847418 -0.066077515 0.13315758
-0.09906958 -0.09111965 -0.23728749 -0.13061732 -0.087776855 0.051535703 -0.14649542 0.017148288
0.18843947 -0.08444946 -0.049586587 -0.06011994 0.06596713 -0.005008897 0.018500768 0.112337396
0.008569146 0.13964225 -0.06756844 -0.117003664 -0.009684896 -0.06747238 -0.010855458 -0.15366268
-0.24334034 0.13844833 -0.06826104 -0.001667988 0.04033546 -0.06499997 -0.1623936 -0.0938831
-0.022599194 -0.08127212 -0.10910559 -0.11129184 -0.09557272 0.0065894593 -0.048964366 0.07548453
-0.008799468 -0.21409109 0.004586841 -0.13016263 -0.009827152 -0.131639 -0.14944164 -0.21255545
-0.08202332 -0.022144388 0.025952734 -0.14768979 -0.17845593 -0.01479065 -0.057861857 -0.006604129
-0.08557422 -0.041487094 -0.12861498 -0.086935334 -0.17646822 -0.11495164 -0.23018728 -0.014668908
0.023148257 -0.088025086 -0.042275038 0.010386192 -0.0900379 -0.13072263 -0.08602265 -0.02876828
-0.20162356 -0.10882926 -0.19782253 -0.0053778123 -0.15178117 -0.005619773 -0.14479825 -0.1336895
-0.12127088 -0.09072014 -0.14762124 -0.027511047 -0.0006241335 -0.027854284 -0.062037636 -0.016380921
0.10319556 -0.04929164 -0.08198012 -0.0070909956 -0.049637858 -0.07688933 0.018515667 -0.08024415
-0.07576774 0.09113443 0.17019 0.01924156 -0.15813746 -0.0461059 -0.029682044 0.19706634
-0.14242351 0.00463933 0.18423134 -0.13112561 0.07181672 0.11173699 0.108429916 -0.31808063
0.058157574 -0.061732892 -0.08592236 0.02811471 0.0027371654 -0.10765581 -0.029239062 -0.00920007
0.09028934 0.11594985 0.021521691 0.03622106 0.19501485 -0.074969545 -0.1421162 -0.02284004
0.0029201624 -0.028697547 0.02866461 0.07880737 -0.21926849 -0.16339783 -0.033038683 -0.089462176
-0.09272676 -0.16731821 -0.013532412 -0.07441447 -0.07939854 -0.10820751 0.035779852 0.06566318
-0.046088673 0.05069433 0.12306728 0.057622455 0.061065737 0.006946087 0.13860491 0.014949471
0.037865464 -0.0145189455 0.11349076 0.012220991 -0.09106432 -0.017036404 -0.04228864 -0.12701438
0.060975872 -0.07514684 0.0097616045 -0.05575577 0.07435757 0.012101285 -0.007185955 -0.086099185
-0.030796392 0.03734864 -0.058070317 -0.032288443 0.05173492 0.041330613 0.007049362 0.06718096
-0.041780397 0.08226913 -0.032191917 -0.05746251 0.1380252 -0.039572466 0.10884187 0.048208408
0.094080076 -0.008227137 -0.083117135 -0.04262653 -0.013850773 -0.11440892 -0.03206873 0.06133412
0.06482609 -0.03074254 -0.006383888 0.05917829 0.24765165 -0.015016925 0.022816116 -0.1829982

conv1.bias f4 [6]
00000000: 446d 1a3c fb22 393d 6f19 4dbb a4ea 953c
00000010: 76f2 47ba b6dd 7a3b
0.009425465 0.045199376 -0.0031295677 0.018300362 -0.0007627377 0.0038279123

conv2.weight f4 [16, 6, 5, 5]
00000000: 4110 a1bc 07a2 ec3d adc4 b2bd 30aa 0bbd
00000010: fbe1 873d 4816 883d eac8 4c3d 015a 96bc
00000020: 00e6 b4bc 7fdd 273c 1ca1 dabd e06b d6bc
00000030: 4970 af3d 5db0 54bc baea 803c 9b4c 593d
00000040: fb18 303d 84a2 97bd 7c3d babd b199 16bd
00000050: 6343 a6bd dec3 5fbd 55cb a9bc fd7b 87bc
00000060: 0d77 0c3d 2389 a9bd 9427 173d 3e65 14be
00000070: 2695 f4bc 50ed 6cbd 8c2b e83d 906b 17be
00000080: ef6f 51bc f89b 6cbd e1b7 64bd f1b1 f4bd
00000090: 2a41 79bd 5645 16be 504d 4f3d 706b 08bd
000000a0: abe1 933c 5112 da3d e091 5c3d 2e34 6c3d
000000b0: 4f8f 7dbd 7a16 a0bd af04 f9bc 8264 05bd
000000c0: edf1 0c3d 7283 3bbd 8169 98ba cca3 2dbe
000000d0: a07d 39bd 9086 37bd 396b 43bd ed3a 903c
000000e0: bc0a ea3d 0849 e93d 24e6 6a3c 06a6 613d
000000f0: 43ac 57bd 2b19 f53a c41a 8cbd 05f8 013d
00000100: 7158 8ebc c885 d2bc cb07 fabd e87f 7cbc
00000110: cd05 a03c d00c 873c 6442 60bd b1f7 283d
00000120: a618 cb3d e0f8 90bb 07dc 1bbb 5880 12be
00000130: 3a98 093c 92e3 4ebd ec1c 943d 3006 8dbd
00000140: 6d1c a0bb 6884 51bd c2df 97bd 5671 293d
00000150: 9c20 55bc 3ec9 8e3d 9805 523c 0188 5dbd
00000160: 8835 f83d 863f 7cbd 26f9 b5bd 3415 0a3c
00000170: bdc3 30bd 11b7 29be 67c0 3d3c 23d7 81b9
00000180: 1d54 823c e8d0 cabb 329d 523d 06fa 103e
00000190: c034 a3ba abae 57bc 9c3a 0b3d e943 ca3c
000001a0: 4373 90bd 7cb6 9dbd d1a7 cc3d 99a0 d2bd
000001b0: 2382 053d 9bab a4bb 8aba 0ebc df91 533d
000001c0: 5dfb 98bd 3670 ab3d 4153 4bbc f881 a1bc
000001d0: 818c 0c3d bf53 bb3c d9b3 e73c 4ba6 0fbd
000001e0: 6f16 03bd 3ac2 5b3d 5bcc af3d d9df 8dbd
000001f0: 58f5 92bd c3e6 933c af70 c9bd 3873 763d
00000200: 9fa0 45bd 03e2 143c b40b 843c d9f5 1dbd
00000210: f711 aebd b7b2 e33d 9f77 adbd ddaf a23c
00000220: e7df 0b3c 1ca0 fcbc 224a 03bd be2f 923c
00000230: b472 003d 0b6f 4dbc 4d91 d4bb 9be4 55bc
00000240: 2d34 793d b9b9 fdbc 6812 80bd 32e0 2bbd
00000250: 2578 533c 1fc8 9b3d 5814 5b3a 9783 5d3c
00000260: 4bc4 c1bd f443 a5bd e781 363c 8553 90bd
00000270: e655 0abd 7681 233c 01c4 2e3a 82b0 f7b9
00000280: 6d55 cdbc 7d7e 833b 15fb 7f3d 1c84 b5bc
00000290: d382 ac3b 6bb9 cbbd 39b5 3f3d d61e 80bd
000002a0: 606b d5bc a722 8abb 12fc 20bc 8d3f 9cbc
000002b0: d973 16bd f3aa 7fbc c057 b1bc 4cbd 82bc
000002c0: bdd2 84bd 98c9 bbbd 7c6d 693d dbc9 3a3d
000002d0: 3ec7 97bc 4329 c2bc 5c29 873c 8354 19bd
000002e0: 4e77 b9bc 8891 39bc b343 fa3a c149 b8bc
000002f0: 162d 213d f210 0a3d 1aef 80bd 47db 673d
00000300: 15d1 a93c 21bc 8f3c 3d95 97bd 36e0 bebd
00000310: c97a 81bc 1946 d13b a2fe 263b 5f44 82bb
00000320: e7cc b9bc 8c09 0abd 05bc a63c 3081 b8bb
00000330: 5697 e63c 3c60 a63d 88e5 9f3d e7b6 15bd
00000340: 2455 7bb9 9608 68bc d2c6 e0bd 9d9c 61bd
00000350: 56fd 883c a3f6 72bd 3b8c b8bd 6451 08bd
00000360: ccfd b43d 4531 92bd e7b7 6bbc 2a07 eb3c
00000370: 0459 5c3c 4a39 21bd 7918 d53d 53b8 043d
00000380: 0b35 dabd aacc 0d3e c85d 2fbd 5a10 21bc
00000390: 3dda 03bd 02aa 9fbc 3174 3c3c fa7f 7d3d
000003a0: b1e0 ccbd 060f 623d 8269 ca3d 0072 383d
000003b0: 42eb e63c b691 c33d 57b7 90bd 5d86 a2bd
000003c0: e2f1 54bc 0574 eabd 07c5 3bbc 229d 843d
000003d0: 03b1 65bd a1f9 fc3d d8e6 1c3d 1187 c63c
000003e0: 84f5 833c 0edd c1bc 32d5 00be 8a12 913a
000003f0: 5083 873d b003 b43c 9715 38bc 5f66 c6ba
-0.01966107 0.11554342 -0.08728919 -0.03409785 0.06634899 0.06644875 0.049996294 -0.018353464
-0.022082329 0.01024568 -0.106752604 -0.026174486 0.085663386 -0.012981501 0.015736926 0.053051572
0.042992573 -0.07404044 -0.090937585 -0.036767665 -0.08118322 -0.054630153 -0.02072684 -0.016538614
0.034293223 -0.0827811 0.03690298 -0.14491746 -0.029856276 -0.057843506 0.11336431 -0.14787126
-0.012783035 -0.05776593 -0.055839423 -0.11948002 -0.06085316 -0.14674887 0.05061084 -0.033305585
0.018051943 0.10648025 0.053850055 0.05766695 -0.061904248 -0.07816787 -0.030397741 -0.032566555
0.034410406 -0.045779653 -0.0011628122 -0.16957015 -0.04528582 -0.044806063 -0.047709677 0.017606223
0.11427829 0.11390883 0.014337096 0.055089973 -0.052654516 0.0018699517 -0.06841043 0.03173067
-0.017376157 -0.025698557 -0.12208518 -0.015411355 0.019534016 0.016485602 -0.054750815 0.041251842
0.09916811 -0.0044241995 -0.002378227 -0.14306772 0.00839811 -0.050509997 0.07232079 -0.06885946
-0.004886201 -0.051151663 -0.07415725 0.04136785 -0.013008263 0.06971978 0.0128187165 -0.05408478
0.12119585 -0.06158402 -0.08885412 0.008427907 -0.04315542 -0.1657374 0.011581517 -0.00024765087
0.015909249 -0.0061894543 0.051419444 0.14157876 -0.0012451634 -0.013164203 0.03399144 0.024690585
-0.070532344 -0.07700822 0.09992946 -0.10284538 0.03259481 -0.00502534 -0.008711467 0.051652785
-0.07469819 0.08371012 -0.012409986 -0.019715294 0.034313682 0.022867082 0.028284 -0.0350707
-0.032003816 0.053652026 0.085838996 -0.06927461 -0.07175702 0.018054372 -0.09835946 0.060168475
-0.048248883 0.0090870885 0.016118862 -0.038564537 -0.0849952 0.111180715 -0.084700815 0.019859249
0.008537269 -0.030838065 -0.03205312 0.01784503 0.03135939 -0.012538682 -0.0064870478 -0.013054992
0.060840774 -0.030972349 -0.06253511 -0.041961856 0.012907063 0.076065294 0.00083572185 0.013520143
-0.09461268 -0.08069602 0.01113937 -0.0704718 -0.033773325 0.009979596 0.000666678 -0.0004724302
-0.025065148 0.0040128813 0.06249531 -0.022157721 0.005264619 -0.09947475 0.046803687 -0.062558815
-0.026052177 -0.0042155567 -0.009825723 -0.019073272 -0.036731575 -0.015604722 -0.021648288 -0.015959404
-0.06485508 -0.0916931 0.056989178 0.04560266 -0.018527623 -0.023701316 0.016499214 -0.037434112
-0.022639897 -0.011326201 0.0019093662 -0.022496106 0.039349638 0.033707567 -0.06295605 0.056605604
0.02072958 0.017545762 -0.07401512 -0.093201086 -0.015805619 0.00638653 0.0025481363 -0.0039754356
-0.022680713 -0.03370051 0.020353327 -0.0056306347 0.028148334 0.08123824 0.078074515 -0.036551382
-0.00023968943 -0.014162203 -0.10975422 -0.055081 0.016722362 -0.059317242 -0.09011122 -0.033280745
0.088374704 -0.07138304 -0.014387107 0.02868994 0.013448957 -0.039361276 0.104050584 0.032402348
-0.106546484 0.13847604 -0.042814046 -0.009830559 -0.03219055 -0.019490246 0.011502312 0.061889626
-0.10003794 0.05519011 0.09883405 0.045030594 0.028188352 0.095492765 -0.07066219 -0.07935784
-0.0129971225 -0.1144791 -0.011460549 0.06475283 -0.056077015 0.123523004 0.038306087 0.024234327
0.016108282 -0.023664977 -0.12581328 0.0011068147 0.06616843 0.021974415 -0.011235616 -0.001513671

conv2.bias f4 [16]
00000000: 7fff 8f3b 093d afbc c4d8 a8bc 5817 91bb
00000010: 4e09 b63c db79 793c 71e8 cabb b382 43bc
00000020: 7c09 9cb9 40c2 173b 8af0 cbba 00a1 f0bc
00000030: b6b7 75bb 6275 be3b afdf 033c 9194 ea3b
0.004394471 -0.021391409 -0.020611174 -0.0044278316 0.022221234 0.0152268065 -0.00619226 -0.011933017
-0.00029761705 0.0023156554 -0.0015559357 -0.029373646 -0.0037493533 0.005812333 0.008048936 0.007158824

fc1.weight f4 [120, 400]
00000000: f33f 613d 7f8c 09bb 5bd5 0fbb ac05 05be
00000010: d5e0 9bbc 6790 5ebe 012f 3cbc d816 3bbd
00000020: 13b0 ebbd c9a3 c2bd b61b 02be 3e97 45bc
00000030: 5209 ba3d f7cf fc3c 4f62 09be 0cae bdbc
00000040: 31a3 813d 1f9a 8cbd 5ee7 e33c dfa4 883d
00000050: 233e 393e 8409 e5bd d90c 2c3b ad8b 50be
00000060: 62eb 433e 571c fbbc 308e 463e 29c1 ca3c
00000070: 3439 2fbd 09f1 84bd 259a 01be acac 853d
00000080: 312d f53d ee38 a73a 06b3 13be bbb5 413d
00000090: 99ea 46bd 16db 3f3e 719f 6b3c e103 273b
000000a0: d8df 063e 2d3a 5a3d 209c 86bd 1658 033e
000000b0: 725e 2d3d 78ca a6bd 178a 2b3d f5b9 a33d
000000c0: e0b4 f9bc 990e 3b3e c7ce 333d 82c2 3cbc
000000d0: 3a71 573d bb7c 04bd 1ea9 a13d e5ed 51bd
000000e0: 9020 463d 45a6 0e3c 7c92 5bbc 35d8 143d
000000f0: 5259 aabb 0a7a 5e3e 8aeb e4bc b968 d83d
00000100: be96 eebd 6653 2e3e e730 bcbd 9697 a33c
00000110: 963a b13d e5f2 10bc d270 f63c c8f4 89bd
00000120: 58fb 60bd cd87 533d 298b 04be e736 66bc
00000130: 55ac 083e 19b6 80bd 4415 27be 008d a23d
00000140: 3357 a9bb 848f 273e c266 75bd d491 f0bd
00000150: f47d 033b e1ae 913c 23ec 22be acaa cdbd
00000160: 1d99 04be a821 04be 935b ef3c df98 473d
00000170: 23a2 53bd bfa4 abbc 2e70 063d 8adf c639
00000180: 80df 6b3d 6a6f c73d 9f85 2fbc 78dc b2bd
00000190: badf b83d 7ba6 8fbd 85cd 443d 1dc4 673d
000001a0: 0c72 c4bd 00da 52be 51a1 263e 3344 b8bc
000001b0: 831f e2bc 2c54 693a 1962 86bd fc80 70bd
000001c0: 506b f73c ac40 5fbd a84b 6dbd 2e09 8a3d
000001d0: d407 753e 5839 83bc 4eaf 5c3e ab8d 073c
000001e0: b256 fe3c b870 693d e06b 1abd 4f7f e93d
000001f0: 5fe1 10bd d1df 353e 5e0e f33c 5434 bebc
00000200: 470d dbbd a1dc febd ba89 1c3e 0d8a b9bd
00000210: 6c48 84be 01f6 b8bd 2995 423e 9052 8a3c
00000220: d066 dfbc 41a8 11be d191 0b3e 05b4 1a3c
00000230: a257 febd e40e a03d 9719 dc3d 380a 013e
00000240: 3ec9 4ebe 4e07 6bbc ae01 0c3d 21ec 0d3e
00000250: 4a7f 813d 58f3 fcb9 d0cf 843e 0ffd 14bd
00000260: 0640 bcbd 8ba4 073e bd66 e63d e378 ff3d
00000270: cbf3 b6bc 1bbc 0a3e 0ab3 2a3d 36ac 823d
00000280: 8526 d43c 365f aa3d 82cc be3d fcfc c2bd
00000290: 3494 7d3d 1b4b 1f3e a9e5 f2bd 02a9 a33d
000002a0: 6485 e3bd b460 8bbd 367e b0bc ae0b a2bd
000002b0: 90bd 243c 6cc8 52bc daa3 343d 923c 60bd
000002c0: 955e 8ebd 36db 233e 1f00 eebc e1d8 a83d
000002d0: 17ac 513d 8ba4 433d 0bea e5bc 7144 edbc
000002e0: e719 c83d 872d 6fbd 1423 0bbd f57d c9bb
000002f0: 2b46 3e3e 601b fd3d 3964 00bd 0ebd 48bd
00000300: 14bb afbd 925a d03c 97f2 ee3d c58c 323d
00000310: 99e1 ac3c 3680 90bd 9e15 22be bc57 dbbd
00000320: 9da7 063d fc70 a6bd e74c 623d 220d 2d3d
00000330: bf54 f1bc 6770 993d 8eec 853c 0adc c03d
00000340: b3ef b0bd d5ef 473e 77f1 af3b ab21 c43d
00000350: 4204 113e 694b acbd 39ee c33c c107 74be
00000360: a577 b5be b93a b33d 3a99 4a3e 03a1 9bbd
00000370: a2bd 76bd b386 00be a150 db3c 27d6 993d
00000380: b2ce 37be 1b81 203c ce90 90bd 2f79 6bbe
00000390: 6b0f c83d ff43 8ebd 57e3 96bd 5c74 7e3d
000003a0: e798 653e 3db6 e1bc b23b 7bbb 950b 8f3d
000003b0: 2bfe 99bb e4ab 043d d43c 9fbd 6005 3d3e
000003c0: eee9 a33d 52b5 97bd 6fba 22bd 2f97 80bc
000003d0: fdd0 fe3d 8017 143e 4116 993d da0b ce3d
000003e0: 1ee8 673d ab02 153d 6eaa 9d3d feed 79bc
000003f0: cabc d7bd f815 073c 2a3a 263d 0fce d9bc
0.054992627 -0.0020988283 -0.0021947238 -0.12990445 -0.019028107 -0.21734773 -0.011485816 -0.045676082
-0.11508193 -0.09503896 -0.12705883 -0.012059985 0.09083809 0.030860884 -0.13416408 -0.023154281
0.063299544 -0.06865334 0.027820285 0.06672072 0.1809011 -0.111834556 0.0026252775 -0.20365782
0.1913276 -0.030653162 0.19390178 0.024750309 -0.042779163 -0.06491286 -0.12656458 0.06527075
0.1197151 0.0012758055 -0.14423761 0.047292452 -0.048563574 0.18735918 0.0143812755 0.002548449
0.13171327 0.053278137 -0.06572747 0.12826571 0.0423264 -0.081440866 0.04187974 0.07994453
-0.030481756 0.18267287 0.04389837 -0.011520984 0.052598216 -0.032345515 0.07893585 -0.051252265
0.048370898 0.008706634 -0.013401624 0.036339004 -0.005198636 0.21726242 -0.027944345 0.10566849
-0.116498455 0.17024001 -0.09189015 0.019969743 0.086537525 -0.008846973 0.030083094 -0.067361414
-0.0549272 0.05164318 -0.1294371 -0.014051176 0.1334699 -0.06284732 -0.16316706 0.0793705
-0.0051678657 0.1636334 -0.05991245 -0.117465645 0.0020064088 0.017783584 -0.15910392 -0.10042319
-0.12949033 -0.12903464 0.02921847 0.048729774 -0.051668297 -0.02095258 0.032821827 0.00037932053
0.057586193 0.097380474 -0.01071301 -0.08733457 0.090270475 -0.070141755 0.04804756 0.056583513
-0.09592065 -0.20590973 0.16272475 -0.022493457 -0.027602917 0.0008900787 -0.065616794 -0.05871676
0.030202538 -0.054505035 -0.05793348 0.06740032 0.23928767 -0.016018555 0.21551248 0.008273522
0.031047199 0.056992263 -0.037700534 0.11401235 -0.03537118 0.1776116 0.029669937 -0.023218311
-0.10695892 -0.124444254 0.15286914 -0.09059534 -0.25836504 -0.090312965 0.19002213 0.016885072
-0.027270705 -0.1422434 0.13629843 0.009442334 -0.124190584 0.0781534 0.107470684 0.12601554
-0.20193955 -0.014345003 0.03418129 0.13859607 0.063231066 -0.0004824649 0.25939798 -0.036374148
-0.09191899 0.13246362 0.112500645 0.12474229 -0.022333046 0.13548319 0.04167465 0.06380503
0.025897274 0.08318941 0.093163505 -0.09520909 0.061908916 0.15555994 -0.118602104 0.0799122
-0.111094266 -0.06805554 -0.021544557 -0.07912384 0.010054961 -0.012865167 0.044101574 -0.054745264
-0.06951634 0.16001591 -0.029052792 0.08244491 0.05118951 0.047764342 -0.028065702 -0.0289633
0.097705655 -0.058393028 -0.033969 -0.0061490485 0.18581454 0.12358737 -0.03134558 -0.04900842
-0.08580604 0.025433812 0.11667364 0.04359128 0.021103667 -0.07055704 -0.15828559 -0.107100934
0.032874692 -0.08127019 0.05524912 0.042248853 -0.029459355 0.07492142 0.01634815 0.09416969
-0.08639469 0.19525082 0.005369361 0.09576734 0.1416178 -0.08412821 0.023917304 -0.23831083
-0.35442844 0.08751435 0.19785014 -0.0759907 -0.06023944 -0.12551384 0.026771845 0.075115494
-0.17949942 0.009796406 -0.07058869 -0.22995447 0.09768566 -0.06946563 -0.073675804 0.062122688
0.22421609 -0.027552718 -0.0038335142 0.06984631 -0.0046994886 0.03239049 -0.07775274 0.18459082
0.08003603 -0.07407631 -0.03972858 -0.01569709 0.12442205 0.1446209 0.07474948 0.10060854
0.05661785 0.036379497 0.076985225 -0.015254496 -0.105340555 0.008244984 0.040582813 -0.026587514

fc1.bias f4 [120]
00000000: 85ab 08bb 176f 8539 083c 99bb 4482 173b
00000010: 8611 0abb 0a16 a6b9 71b7 c2ba 3748 8cbb
00000020: 6925 423b ecca 7fbb 0429 623b 850f 0e3a
00000030: ecba 87ba c778 483b 10c6 0c3b 933d 693c
00000040: 8a5e 273b cd8b 0cbc 7a15 143c d575 f9ba
00000050: 82a2 b03a bc07 bbbb eaca 17bb 0000 0000
00000060: b1c9 3abb 93ca 813c 809c 67bb 05d9 0e39
00000070: c6f0 8aba 546e 8a3a f87b 0b39 1f08 c3bb
00000080: c0f2 7d39 f592 283c 6e02 5cb9 e3de 50bb
00000090: b8bf 78bb e53e a8bb 42e8 5b3b d0f2 ceba
000000a0: 5b7a 03bc a20b 563b d072 08bc fb64 1139
000000b0: e2a1 5bbb 627e ea3b a202 e63a d1d9 a43b
000000c0: a156 fb3a 7858 8db8 9185 8b3a 4ef4 953b
000000d0: c863 de3b 98bd 3ab8 e5f0 bf3a b8bc 553a
000000e0: d17b 8038 8932 64bb 0000 0000 8edb 99b9
000000f0: 7bef 8dbc 6e6a 343c d0fd d93a aef0 363b
00000100: 166e a43a ae25 9aba 254d 8e3a 4f63 413a
00000110: 18cb adbb f4d9 54bb 89ef 0fba 3345 3739
00000120: ba20 073a fcf0 b83b 4e96 9cbb 2875 983a
00000130: 1428 1bbb 71cb 3dba c431 99ba 67a5 533b
00000140: 1501 e2b9 a1dc 10bb 0e4d ec3a afce 1031
00000150: f1f1 b4ba 5087 433c cf3f 8cba f67d 78bb
00000160: 60d7 2f3c c463 043b 32ab 02bb 9247 3fbb
00000170: 4eb8 c4ba 392e 4e3b f1bd 28bb d317 6eb6
00000180: 609d 0bb8 6b51 e639 6064 b738 0446 b93a
00000190: 3737 a53c dd33 8339 47e9 9b3b e0d0 d3b9
000001a0: d560 92bb ef37 50bb f421 0fb8 8936 893b
000001b0: 38cd f4bb bda5 ccba df58 393c d4aa 8e3b
000001c0: 7096 6db8 5a05 603a 6fb2 b53b c0d8 efbb
000001d0: 32f5 18ba 6d89 2ebb cc49 1e3b dd8a f3b9
-0.0020854187 0.00025450505 -0.0046763457 0.0023118416 -0.0021067574 -0.00031678408 -0.0014855695 -0.0042810696
0.002962435 -0.0039030863 0.003450931 0.00054191827 -0.001035539 0.0030589567 0.002148036 0.014235872
0.0025538527 -0.008578253 0.009038324 -0.0019032309 0.0013476165 -0.005707709 -0.0023161718 0.0
-0.0028501565 0.015843665 -0.0035341084 0.00013623021 -0.001060032 0.0010561445 0.00013302255 -0.005951896
0.00024218392 0.010288944 -0.0002098174 -0.0031871132 -0.003795607 -0.0051344507 0.0033555184 -0.0015788916
-0.008024777 0.0032660742 -0.008328155 0.00013865896 -0.0033513238 0.0071561793 0.0017548392 0.0050308486
0.0019175598 -6.7398825e-05 0.0010644664 0.0045762425 0.006786797 -4.452243e-05 0.0014643936 0.00081534265
6.126578e-05 -0.003482016 0.0 -0.00029346015 -0.017326107 0.011011703 0.0016631428 0.0027914452
0.0012545015 -0.0011760497 0.0010856731 0.0007377164 -0.0053037517 -0.0032478543 -0.00054907106 0.00017478019
0.0005154718 0.005643962 -0.00477866 0.0011631595 -0.0023675011 -0.0007240093 -0.0011687805 0.0032294632
-0.00043106885 -0.0022104161 0.0018028335 2.1072244e-09 -0.0013805014 0.0119341165 -0.0010700169 -0.0037916875
0.010732502 0.0020201067 -0.0019938466 -0.0029186946 -0.001500854 0.0031460656 -0.002574798 -3.5478631e-06
-3.328675e-05 0.0004392968 8.744816e-05 0.0014135246 0.02016793 0.00025024908 0.0047580334 -0.0004040068
-0.0044671097 -0.003177162 -3.4125478e-05 0.0041874093 -0.007470753 -0.0015613359 0.011312692 0.0043538604
-5.664531e-05 0.00085457193 0.0055449526 -0.00731954 -0.0005834877 -0.0026632205 0.0024152873 -0.00046452033

fc2.weight f4 [84, 120]
00000000: 63a5 bebc 7099 5bbd b718 483d d804 363d
00000010: 7ddc 4bbe 30dc 2fbe 8528 933c 232c 13be
00000020: f266 9b3c 36b7 9d3d dc96 af3d 68d7 f83d
00000030: efc4 bc3d 5b28 383e e3ba 39bb eedf 36be
00000040: 5b7d 0d3d 9561 06be dead b83d 192d f63d
00000050: f80e d7bc 768c 203d fb51 643c 5091 bd3b
00000060: 0b7c 32be 8b6d 863c 9482 023e b6a8 463d
00000070: c24d 0f3d c2fc e33d 9dbd c5bd 6695 193a
00000080: 3007 c7bb efba b43d 14aa db3d 2386 24bd
00000090: 4920 a2bd 22c3 1abe 544d 0fbd 4b1b 42be
000000a0: d273 92be 06fa b83d b79e 1dbe 19a1 ff3b
000000b0: 72c9 083e d640 b33d 22b1 2dbd 3c99 dabd
000000c0: 9032 073d 0320 b33d 0d9d 4fbd a130 ffbd
000000d0: ebda 8d3c 470f 0a3d 169b 353e 2abb 27bc
000000e0: d6f8 d53d a5d6 033e 3aef d33d d562 773c
000000f0: d3b7 9f3d 06b7 603e 7372 8f3d 2231 d93d
00000100: 465f 4bbd 2d50 33be d1f5 aebc a8b4 77bd
00000110: 6ecc 133c 9a7a 073d a92b 5d3d ba42 02bd
00000120: 8f07 00be ce6a 7abb 8c86 ea3d 8012 c03d
00000130: 3a3a 533d 65fa 7ebd 2ff1 433c e330 3d3e
00000140: 22c0 c83d 38c3 8bbd e083 cabc 66f7 04bb
00000150: ea12 85bd 774d fabc 9354 503e 7163 0fbe
00000160: 5df3 02bc 0712 2d3d 790b e83d e5b8 ae3c
00000170: ecd5 b6bc 6076 8a3d 5a79 7e3d 3b3b 4abd
00000180: 8635 b23d 8c0d 243e 08f6 85bd 896a a7bb
00000190: 8a1c 473d cf69 e63d a2cc 5b3d 427a c2bd
000001a0: 4b4a 673e b458 0fbe 627c 0b3d 054a 43bb
000001b0: f3ab db3d 0c06 b53d 2d0e d43c d0af 95bd
000001c0: 6511 92bd 7d2f 52be c0e0 093e 5197 8dbc
000001d0: 0cfc 33be ccb1 513b 0da9 cfbc 2a35 163e
000001e0: 5de9 38bb 6d38 3abd af51 09be d67d 6c3c
000001f0: 8b4d 8e3d 8947 293e bd1a 09be b8e9 42bd
00000200: 670c 613b 2a41 11bd 2905 9d3d b2cc 073d
00000210: 4061 31bd 55b7 513d e268 39bd 2d8b 423e
00000220: d81f f8bd 8f00 40bd ae4a 743c 38f0 963c
00000230: a7b9 8c3e 5ecf 5abd 6bab a73b 1608 9cbd
00000240: ed82 8cbd e770 ed3d d94d 16be 4686 323e
00000250: 8902 3abb b12d c53d 2d35 3abd 6dd6 1ebe
00000260: 9f28 cebd b7b8 2abc db8e afbd c10d 8abd
00000270: 5717 41bd 0c6a 7dbd 9b5f 5f3e c954 113e
00000280: a67f c6bd 1761 f6bc 9255 58bd 31db d73d
00000290: f5de 373d 14ae 2f3e 77b9 00be 17be 413c
000002a0: 6799 18be f161 9cbd 9e4d a5bd e507 733d
000002b0: 2150 e83c ffc4 8abd 82bb 8e3d b34b 7abd
000002c0: f2f3 dc3d aafc b73c e6e5 803e ca7e 37bd
000002d0: 9ae9 a7ba 2403 df3c d3bb c43d da76 ffbd
000002e0: 0b78 4fbd f462 a13c 6ead 43be e889 643e
000002f0: 86a9 8fbd d038 223e 59af 183e 70ad 513d
00000300: f911 cbbd c8db 8abb 9fa0 193e 241c 26bd
00000310: cefd d5bd f1f5 3a3e fb4b b1bd 30c6 66bd
00000320: 2853 e73c c6d0 bfbd 0d15 d8bc 3b92 333d
00000330: 579e 9b3d 5dd0 dc3d a332 0f3e b3c5 8fbe
00000340: cdf4 97bc 49be 403d 1143 71be 41e8 cbbd
00000350: 0616 d63d 92a6 043c 2bd5 b3bb 305e 43be
00000360: 1bfd 803e 04cf c73b f601 753d e1e0 783c
00000370: 2a52 9bbd 2fcb 0a3e 0541 1ebd 16c6 90bc
00000380: 6255 35bd d5e2 873c 7c2b 02bc 42a4 5d3d
00000390: ff6e 4939 1c59 953d f9e1 1abe 985f 92bb
000003a0: bd93 993d 6adf 14be def8 0dbe c0c0 5dbd
000003b0: 6b29 c63b 434e 343e a969 7bbd 3ede 66bd
000003c0: 5b32 71bd 7c42 f7bc 87ae 8d3d 85ed 44bc
000003d0: bdde 353e ac28 0e3d 14ea 16be ecff 553e
000003e0: df9f 733d 31d5 debd b48a 66be 43d1 8dbd
000003f0: 3853 9bbd c024 e43d cbec 423e 6feb 0dbe
-0.023272222 -0.053613126 0.048851695 0.044438213 -0.19908328 -0.17173839 0.017963657 -0.14372306
0.018969987 0.0770096 0.08573696 0.121504605 0.092172496 0.17984144 -0.0028340153 -0.1785886
0.034543376 -0.13123162 0.090175375 0.120203204 -0.026252255 0.039196454 0.013935561 0.005785145
-0.17430131 0.016409656 0.12745124 0.04850074 0.034986265 0.11132194 -0.096553065 0.0005858749
-0.006073855 0.08824717 0.10725799 -0.040166985 -0.07916314 -0.151135 -0.034985855 -0.18955724
-0.2860399 0.09032063 -0.15392576 0.0078011868 0.13358095 0.08752601 -0.042405255 -0.106737584
0.033007205 0.0874634 -0.050686885 -0.12460447 0.017316302 0.033705976 0.17734942 -0.0102374945
0.10447852 0.12874849 0.10348363 0.015099247 0.077987336 0.21944818 0.07004251 0.106050745
-0.049651407 -0.17511053 -0.021357449 -0.06047502 0.009020908 0.033075906 0.053996716 -0.031801917
-0.12502883 -0.0038210633 0.11451444 0.093785286 0.0515692 -0.062250514 0.011959358 0.1847568
0.098022714 -0.068243444 -0.024721086 -0.0020289063 -0.06497748 -0.030554516 0.20344763 -0.14002778
-0.007992593 0.04225352 0.11330313 0.021328399 -0.022318803 0.067608595 0.06212745 -0.049372893
0.08701615 0.16020793 -0.06541067 -0.0051091355 0.0486112 0.1125065 0.05366195 -0.09495975
0.22586934 -0.13998681 0.034054168 -0.0029798758 0.10726156 0.08839044 0.025885666 -0.07308924
-0.07132224 -0.20525928 0.13464642 -0.017284067 -0.17576617 0.0031996844 -0.025349164 0.14668718
-0.0028215267 -0.045463968 -0.13410066 0.0144342985 0.06948384 0.16531195 -0.13389106 -0.047586173
0.0034339668 -0.035462536 0.07667 0.033154197 -0.043305635 0.05120023 -0.04526604 0.18998404
-0.12115449 -0.046875533 0.014910383 0.018425092 0.27485391 -0.053420417 0.00511687 -0.0761873
-0.068609096 0.115938 -0.14678134 0.17434034 -0.0028382859 0.096278556 -0.04546087 -0.15511484
-0.100663416 -0.010420016 -0.085721694 -0.067409046 -0.0471414 -0.061868712 0.21813814 0.14192499
-0.09692316 -0.030075593 -0.05281598 0.10539854 0.044890363 0.1715625 -0.12570749 0.011825106
-0.14902268 -0.07635868 -0.08071445 0.0593337 0.028358521 -0.06775855 0.06969358 -0.06110735
0.107887164 0.022459347 0.251754 -0.04479865 -0.0012810708 0.027223177 0.09606137 -0.12473841
-0.05065159 0.019700505 -0.19109127 0.22318232 -0.07014756 0.15841985 0.1491064 0.051190794
-0.099155374 -0.0042376257 0.15002678 -0.04055418 -0.104488 0.18257882 -0.0865707 -0.05634135
0.028237894 -0.09365992 -0.026377225 0.043840628 0.0759856 0.1078193 0.1398416 -0.2808052
-0.018549347 0.04705647 -0.2356074 -0.09956408 0.104534194 0.008096354 -0.005488058 -0.19078898
0.25193104 0.006097676 0.059816323 0.015190334 -0.07584031 0.13554071 -0.038636226 -0.01767258
-0.04427088 0.016587654 -0.007944938 0.054111727 0.00019210203 0.07292387 -0.15125264 -0.004466962
0.07498882 -0.1453835 -0.13864467 -0.0541389 0.006047418 0.1760798 -0.061380062 -0.05636429
-0.058885913 -0.03018307 0.06918054 -0.01201952 0.17760749 0.034706756 -0.14737731 0.20898408
0.059478637 -0.10880507 -0.22513849 -0.06924679 -0.07584232 0.11139822 0.19035642 -0.13859342

fc2.bias f4 [84]
00000000: c3cb cdba 1273 b139 e2bd c838 e67b 0dba
00000010: ef6d 523c 55f1 16b4 c7bd b2bb a591 b23c
00000020: 676c b23c c8fa 03ba 5c91 913c 1d22 3b3c
00000030: e19c a13a ade9 b4bb 1440 e5b9 24df 76ba
00000040: 19ef 8e3a ec38 d5ba 375a 653b 0eaa c1ba
00000050: 1070 84b9 ec53 28bb ac1e 643c 67fd 443b
00000060: 21d5 d83a deb6 99ba ea27 b5bb 5217 b13b
00000070: 8e6e feba aa80 6dbb d81d 5739 5454 b53b
00000080: 9423 6d39 99cf efbb 823a 463c 4b0b be3b
00000090: a08d f7ba 5630 90bb 21ab 5bbc f543 103a
000000a0: 0000 0000 00f7 d93a da5a 3abb 8132 933a
000000b0: d349 973c f18c 0e3a a1c0 483b 252e bab9
000000c0: 93f4 9837 3dac eb3b a522 26ba 7a72 5d3b
000000d0: 0000 0000 c589 133c f541 89bc de97 73ba
000000e0: 7aba dbbb 7865 47bb dd5d f0ba ff42 dcb8
000000f0: 9a61 efb9 8174 123c bcc6 eebb e21b 53bb
00000100: 0f0b 86bb 5449 e73b 898e 5c39 9252 5e39
00000110: 2ae6 47bb 7d54 9cb9 0c0e ab3a 977b c43b
00000120: 2e73 af39 8753 853c cf44 ba3a 2101 79ba
00000130: dcad dd39 e15f 84ba 8099 83ba 04b5 9ebb
00000140: 3fc9 3a37 7931 173a 4b7c ddbb 81d1 60ba
-0.0015700985 0.00033845805 9.5721116e-05 -0.00053971855 0.012843593 -1.4057635e-07 -0.005454752 0.021797964
0.021780206 -0.0005034623 0.017769508 0.011421707 0.0012330079 -0.0055210204 -0.00043726026 -0.0009417406
0.0010904997 -0.0016267574 0.00349964 -0.0014775412 -0.00025260495 -0.0025684787 0.013923328 0.0030058266
0.001654301 -0.0011727472 -0.00552844 0.0054043913 -0.001941161 -0.003624002 0.00020515115 0.0055337343
0.00022615335 -0.0073184487 0.01209891 0.005799686 -0.0018886812 -0.0044002933 -0.0134074995 0.00055032904
0.0 0.0016629398 -0.00284355 0.0011230261 0.01846782 0.0005437872 0.0030632394 -0.00035511065
1.82337e-05 0.0071921633 -0.000633756 0.0033790157 0.0 0.009005015 -0.016755084 -0.00092923443
-0.0067055793 -0.003042547 -0.001833852 -0.000105028965 -0.0004565835 0.0089389095 -0.0072868746 -0.0032212664
-0.0040906738 0.007058302 0.00021033933 0.0002120233 -0.0030502179 -0.00029817587 0.0013050451 0.0059961784
0.00033464417 0.01627518 0.001421118 -0.00094987644 0.0004228194 -0.0010099375 -0.0010040253 -0.004843356
1.113332e-05 0.0005767565 -0.0067592016 -0.00085761404

fc3.weight f4 [2, 84]
00000000: 36b2 6bbd d7c0 323d 8930 d13c 1270 e2bd
00000010: 4a10 c8bd ed1c bf3d 81e0 21bd cea7 67be
00000020: fe2d e4bd e758 813d c3e5 37be 15a3 883d
00000030: c549 c43d 70f5 2e3c 8ec1 393d 1bd9 88bd
00000040: 1086 dbbd 8203 d53d 1002 82bb 733b 4d3e
00000050: c831 5e3c 9d49 493e a040 bcbd f015 9ebd
00000060: cb9c 183e c922 80be 8f49 81bc 3ce8 543e
00000070: 8f06 823d 1fcc 6abd 1734 4bbe 928f d6bd
00000080: be7e 08ba 33ed 603e 5aba 8cbe f78c cebd
00000090: 3609 3d3c 1930 243d 3e21 a2bc 2b4e 07be
000000a0: df23 3dbd cfdd 25bc cb17 0a3d 1798 1a3e
000000b0: b2ef 43be 4e7b 16be efbe 0f3c 5225 a33d
000000c0: 223a 0ebe 2617 7dbe fb6a 483d e3de c93d
000000d0: aa16 693e b4ac 49be 848b 133e 7fb3 f3bc
000000e0: dd3f 913e 387e 3b3e 05df 8fbd 00e1 bb3d
000000f0: 4af9 033e 17bf f5bd 0cea 173e 626d ee3d
00000100: be84 fe3d f27b 4fbe de23 2fbc 1a79 073d
00000110: 2148 e6bd f89a e1bc d97a 023e 9631 99bd
00000120: 6bf7 03bd dfe7 3cbe 3010 3cbd f792 8f3c
00000130: bb44 043e 1e8d ca39 a5bc eebd 0cb7 43be
00000140: 3ee3 993c 0ece d0bd 3c8e 273d 90c0 b23d
00000150: 9b4f 10bd d208 cc3d 4f3d a63d 7626 a13d
00000160: 05aa 233e 5dce f03b 821b 39be ac47 6c3d
00000170: 9041 d33d 79b9 d4bd 7f16 9a3e 15e4 6abe
00000180: 135b d6bd 2883 dfbd 59fc 073d 7555 a3bd
00000190: a2c7 2cbe d730 d33d d07e 113e d387 f63d
000001a0: 76c6 293d d0d3 e13d ae53 8d3e 2c2f 093e
000001b0: 2e6b a9bd 568b afbd 4870 103c 8b01 533c
000001c0: 148d 03be 6ee5 cdbd 9886 59bd 029c e43d
000001d0: cd52 973c a353 51be 0a2f 1c3e f6ef d63d
000001e0: 81c5 3d3c 6850 89bd dec7 2cbe 308d 2fbd
000001f0: 2a9f 943e 9817 4c3d 506e 943d 0ba5 d13b
00000200: f337 903e e55e 293d 4efd 4e3e 0895 07bd
00000210: b510 21be ca13 993d 010a d73b 5f09 35be
00000220: 77c4 9abd c0b3 e7bd 6790 30bd 797a ca3d
00000230: e264 82bd ea61 1e3d 3d43 d5bc 40b0 a23d
00000240: 59a6 babd 79ac 653e 010b c0bc c03f 983b
00000250: dd8a 02be cb35 453d 7441 f0bb 75f7 803b
00000260: d69c b03b fecc e1bc b88e 993d cc13 a23d
00000270: 4aff 003e 8207 0f3e 1f3f ba3b 2b88 d3bd
00000280: bd5a 203e 49f6 e73d c870 ddbc 723c babc
00000290: f5c5 c7bc e428 27bb 2520 a13d 652a 753d
-0.057543002 0.043640938 0.025535839 -0.11056532 -0.09768732 0.09331689 -0.039520744 -0.22622606
-0.11141585 0.06315785 -0.17958741 0.066717304 0.09584383 0.010678634 0.045350604 -0.066820346
-0.1071893 0.1040106 -0.003967531 0.2004221 0.013561673 0.19656987 -0.09192014 -0.07719028
0.14903562 -0.2502654 -0.015782146 0.20791715 0.06348907 -0.05732357 -0.1984409 -0.104766026
-0.00052068743 0.21965484 -0.27485925 -0.10085481 0.011537841 0.040084932 -0.019791242 -0.13213412
-0.046176787 -0.010123684 0.033714097 0.1509708 -0.19134405 -0.14695475 0.008773549 0.07966103
-0.13889363 -0.24715862 0.04893015 0.098569654 0.22762552 -0.19694787 0.1440869 -0.029748676
0.28369036 0.18309867 -0.070249595 0.09173775 0.12888065 -0.11999338 0.14835376 0.11641957
0.12427662 -0.20262125 -0.010689704 0.033074476 -0.11244226 -0.027539715 0.12742175 -0.07480161
-0.032218378 -0.18447827 -0.045913875 0.017526133 0.12916844 0.00038633583 -0.11657075 -0.19112796
0.018785115 -0.10195552 0.04090713 0.08728135 -0.035232168 0.0996262 0.081171624 0.07868664
0.15982826 0.007348819 -0.180769 0.05768554 0.103152394 -0.103869386 0.30095288 -0.22938569
-0.1046659 -0.10913688 0.03319964 -0.07975284 -0.16873029 0.1031205 0.14208531 0.12037625
0.041449033 0.11026728 0.27602905 0.13396901 -0.08272396 -0.08571498 0.008815832 0.012878786
-0.12846786 -0.10053526 -0.053106874 0.11162569 0.0184721 -0.20442061 0.15252319 0.10494988
0.011582733 -0.067047894 -0.16873118 -0.042859256 0.29027683 0.04982719 0.07247603 0.0063978485
0.28167686 0.041350264 0.20213816 -0.03310111 -0.1572903 0.074744776 0.006562472 -0.17679356
-0.07557004 -0.113135815 -0.043106463 0.09886641 -0.06366898 0.038667597 -0.026033038 0.07943773
-0.091137595 0.22429074 -0.023442747 0.0046462715 -0.12748285 0.048147004 -0.0073320214 0.003935749
0.00538979 -0.027563568 0.074979246 0.07913932 0.12597385 0.13967708 0.005683794 -0.10328706
0.15659614 0.11326272 -0.027031317 -0.0227339 -0.024386385 -0.002550655 0.07867459 0.059854884

fc3.bias f4 [2]
00000000: a4fa 96bc 9dfa 963c
-0.018430062 0.018430049

momentum_buffer f4 [6, 3, 5, 5]
00000000: 6be2 2d3d e0a0 4ebc e4f9 bcbd 572c 43bd
00000010: 219a 3bbd 9378 703d 66cd 153c 215c aebd
00000020: 9777 7ebd c533 0cbd 007d cd3d 00c7 873d
00000030: 8ced 24bd 59d3 38bc 6283 8d3a c1ba 283e
00000040: 6445 053e 93d2 c53c 1c2e 9d3d 9821 843d
00000050: 9020 253e a018 033e 504e 9f3c 0e2e b73d
00000060: d887 a53d b41a 9c3d 91dc 3a3c 0061 89bd
00000070: 72be 6ebb 04f2 0bbb 8d66 b23d e105 1d3d
00000080: 0aab 70bd 065d fbbc e6d6 083c b975 fb3d
00000090: b94e bb3d 08cb 15bc 0dce a03c d4f1 053d
000000a0: 85d7 3b3e 40bc 1d3e 63b2 5f3d c799 db3d
000000b0: 17ad be3d cf9f 393e e01c 1c3e 247a 573d
000000c0: a344 fc3d 3697 dc3d e12b d73d 6306 3e3d
000000d0: f27d 07bd d635 023d 540b 053d 89b9 ee3d
000000e0: 0bab 953d 68f1 e0bc f6dc 973b 890c 2d3d
000000f0: 45be 213e 8992 043e 8f9d e93c b6f0 683d
00000100: 1804 8e3d 1610 5c3e 54db 443e 2893 c93d
00000110: 368f 183e c051 043e 2755 5c3e 7664 433e
00000120: c58c cc3d 004c 273e 1eba 113e 843a 573e
00000130: 070b 063e 1152 9e3d 9d7f 13be a8ca 40bd
00000140: d574 233d 2a09 8fbd 04f6 f2bd 129b 9cbe
00000150: 9eb4 61be 15b6 f83c 8c06 0fbd 9493 f9bd
00000160: 25a8 95be ae6d 65be df46 25bd d115 c0bd
00000170: f3cc 48be 71cc b5be b13c 9ebe 22c7 3bbe
00000180: acbc 4fbe 79c3 adbe 2856 f0be a523 e7be
00000190: 2edd a73e f69e 7c3e 12ba 423e 4757 45bd
000001a0: 49e3 363d db2b 353e f36d 813d 8428 a53c
000001b0: ef7a 3bbe 9468 c2bd f144 333e 6129 bf3d
000001c0: cf41 253c e1e6 34be 07d9 d2bd aa04 c53d
000001d0: 517a 303d ddff 84bd e710 77be 39f6 46be
000001e0: 6ce1 2dbd 58e7 90bd 57fa 57be ccaa b8be
000001f0: 99c7 b3be 50b5 a33e 4229 843e 720d 5b3e
00000200: 9248 c5bb 3a8b ca3d ed74 563e b1c5 d53d
00000210: 6e40 b13d 8ad6 e7bd 038e 92bc 2bbf 553e
00000220: 4624 0c3e bcda 893d 5dba edbd 38aa fdbc
00000230: 8077 033e 4de7 a23d d294 39bc 53b4 44be
00000240: 5e7d 10be d187 ddbc cfec 6abd f179 34be
00000250: a2d5 a9be 1405 a1be 283e 3bbd 4671 28bd
00000260: 73bb c8bc 3808 89bd 5f87 78bd 2c84 123c
00000270: 1364 023c a2da 813d 80d0 1a3c a8d7 5dbc
00000280: 1f63 bf3c d214 ef3c be47 903d e861 143d
00000290: 0992 113c 8efa 71bd e342 f2bc 22ad 213b
000002a0: 050c a4bd cbdc cbbd a6f9 dbbd 1950 a0bd
000002b0: 36a3 14bd eaed 01be 4a44 07be 8899 a23c
000002c0: 94b0 4f3c a8bf 0b3d 6862 e5bc d28f 19bd
000002d0: 75f9 8b3d 82ba 883d c1a9 fe3d 2dca 563d
000002e0: a290 0c3c 6ad7 a23d e862 b83d 738a 0b3e
000002f0: 8deb b93d 29c1 473d 5e7f f6bb 372c c63c
00000300: 6449 783d 8db2 f9bc d8a6 83bd e25f 70bd
00000310: 356f dcbc 663f a53c 3803 a0bd 544c babd
00000320: 0129 013d 7c41 b43c d9e5 073d 8157 1fbd
00000330: c87b 4cbd 39f9 a53d a419 a23d 3bc4 053e
00000340: 6c37 4e3d b4d4 5a3a 33f1 ba3d 95e9 d73d
00000350: a544 133e 16f9 c13d 19ab 423d d964 69bb
00000360: 7f7b 063d d15d 893d d78b e2bc 2dc2 67bd
00000370: 8b01 65bd 1635 cdbc 6889 933c 9bbf 98bd
00000380: 4bb2 acbd 417a b5bd 4eb5 debd e782 cebd
00000390: c876 04be 269b 403b f0bf 89bd 55a9 ccbd
000003a0: 7d2b d2bd 7c4a efbd b3e4 8d3a 8977 80bd
000003b0: ce77 a7bd a009 8dbd 81b2 90bd 6b17 e63c
000003c0: fa70 f8bd 463a 04be 8ead f3bd 0adf 00be
000003d0: aaba c2bc b39b 77bd 7612 97bd 7430 cabd
000003e0: b610 d9bd 2aff 693c b85f e8bd cfa0 01be
000003f0: 4c62 fabd 1a60 15be 6b07 ebba 8862 bbbd
0.042452257 -0.012611598 -0.0922735 -0.047649708 -0.045801286 0.05870874 0.009143209 -0.08513666
-0.06212577 -0.03422906 0.100336075 0.06629753 -0.040265605 -0.011280858 0.0010796601 0.16477491
0.13014752 0.024148261 0.0767481 0.0645172 0.16125703 0.12802362 0.019446522 0.08944331
0.08082551 0.07622281 0.011405126 -0.067079544 -0.0036429432 -0.002135397 0.08710966 0.038335685
-0.058756866 -0.030684005 0.008352017 0.12278313 0.091458745 -0.009142645 0.019629503 0.03270133
0.18343933 0.15403843 0.054613482 0.1072269 0.09310358 0.18127368 0.1524539 0.052606717
0.12317779 0.10771029 0.10506416 0.04639281 -0.033079095 0.031789623 0.032481506 0.11656482
0.073080145 -0.027458861 0.004634495 0.042248283 0.15795238 0.12946524 0.028517513 0.056870185
0.069343746 0.21490511 0.19224292 0.09842521 0.1489838 0.1292181 0.21516858 0.19081292
0.09987787 0.16337585 0.14231154 0.21018416 0.13090144 0.07730497 -0.1440415 -0.047068268
0.03990634 -0.0698417 -0.1186333 -0.3058706 -0.22041556 0.030360261 -0.034918353 -0.121863514
-0.29229847 -0.2240512 -0.04035079 -0.09379161 -0.19609432 -0.3550754 -0.3090568 -0.18337682
-0.20286816 -0.33938196 -0.46940732 -0.45144382 0.32785934 0.24670014 0.19016293 -0.048178937
0.04465035 0.17692511 0.06319799 0.02016092 -0.18308614 -0.09492603 0.17506768 0.09334064
0.010086491 -0.17666198 -0.10295301 0.0962003 0.0430854 -0.064941145 -0.24127541 -0.19429864
-0.042451307 -0.07075375 -0.21091591 -0.36067808 -0.35113218 0.31974268 0.25812727 0.21391848
-0.006020614 0.098898366 0.20943041 0.10438097 0.08654867 -0.11320217 -0.017889982 0.20873706
0.13685712 0.067311734 -0.116078116 -0.030964956 0.12838554 0.079542734 -0.011326985 -0.19209413
-0.14110324 -0.027042301 -0.057354745 -0.17624642 -0.331708 -0.31449187 -0.045713574 -0.04112365
-0.024503445 -0.06691021 -0.060675975 0.008942645 0.00795843 0.06340529 0.009449124 -0.013540186
0.023362694 0.029184733 0.07044934 0.036226183 0.008884915 -0.05907684 -0.02957291 0.0024669846
-0.08010105 -0.09954222 -0.10740976 -0.078277774 -0.036288463 -0.12688413 -0.13209644 0.0198486
0.012676377 0.034118325 -0.028001025 -0.037490673 0.068346895 0.066761985 0.12434722 0.052438904
0.008579405 0.07951243 0.0900324 0.13627033 0.09078131 0.048768196 -0.0075225076 0.024191005
0.060616866 -0.030480647 -0.06428307 -0.05868519 -0.026908496 0.020171832 -0.07813114 -0.0909659
0.031533245 0.022003882 0.033178184 -0.03890181 -0.049922734 0.08104176 0.07915047 0.13063137
0.050345823 0.0008347735 0.09128036 0.10542599 0.14381655 0.094713375 0.047526453 -0.0035613088
0.03283262 0.06707347 -0.027654571 -0.056581665 -0.055909675 -0.025049727 0.018009856 -0.07458421
-0.08432444 -0.08861209 -0.10874425 -0.100835614 -0.12935936 0.002938935 -0.06726062 -0.09993235
-0.10262201 -0.11684129 0.0010825604 -0.062727995 -0.08177148 -0.068866014 -0.07065297 0.028087338
-0.121309236 -0.12912855 -0.11898337 -0.12585083 -0.023770649 -0.06045122 -0.07376568 -0.09872523
-0.105988905 0.014282027 -0.11346382 -0.12659 -0.1222578 -0.14587441 -0.0017931288 -0.09149653

momentum_buffer f4 [6]
00000000: 7228 4c3e f6b9 6ebd 6bf0 a7bd f73e 803a
00000010: 1348 4fbc f63c 4a3e
0.19937304 -0.058282815 -0.08200153 0.000978439 -0.012651461 0.19749817

momentum_buffer f4 [16, 6, 5, 5]
00000000: 5cf0 863c 77f4 5c3c 7a35 413c 90c7 cf3b
00000010: e539 3a3c 79bd b83c 0fed 7b3c c76b 973c
00000020: 6807 663c 7977 4b3c 956c a83c 58ea 933c
00000030: 8b2c d93c 9ce0 e53c 1857 c33c 3bfd be3c
00000040: 554d b13c 472f db3c a245 e83c a793 d23c
00000050: 8758 e2ba 6e71 f2ba 4e9c 10bb 2402 9039
00000060: 9108 093b 0a93 9dbb 2207 f4ba 48d7 00ba
00000070: c74b 4eba d91c 9cba 9d7f b7ba cce4 91b8
00000080: 7367 50ba f0dc abb9 9e4c 8fba e10e 28ba
00000090: 8a1a 25ba 914f 82bb ff64 8fbb d7d7 aaba
000000a0: d0d0 61ba e518 aeb9 28d1 21ba a99b 76ba
000000b0: 2056 ddb9 17e8 dab9 f354 00ba b4f2 19bb
000000c0: 0ced 1dbb f03b 33bb 6170 ee3b 9b6c 803c
000000d0: 3551 943c 6581 8b3c 67f9 5b3c d95f 923b
000000e0: 6637 ea3b 6c3a eb3b fd4c d93b 231a 8c3b
000000f0: a9ee 4bba b559 0cba f984 ecba 55f0 15bb
00000100: 4052 0cbb a1c3 8dba c6a5 c538 25cd 8fb9
00000110: 9d09 62b9 8c81 10ba 9581 533d f5ac 553d
00000120: 9184 523d c210 333d 970a 1f3d 0fe5 753c
00000130: 9d89 9a3c 4032 813c 0ec6 983c 1845 993c
00000140: ac8d 753c a0fa 313c d17b ff3b ec1b 683c
00000150: b919 1e3c 938e 343c 163e 2e3c be68 233c
00000160: ceed fa3b b633 233c 1300 5f3c c77f 633c
00000170: 5ae3 8f3c 54c7 8e3c 763a 7d3c 546c 8a3c
00000180: 1b64 993c eb6b c03c a878 c33c 9fce 903c
00000190: d7e3 e0ba 4472 24bb a6f9 58bb 9c33 45ba
000001a0: 2937 2cba e3c6 11bb 2829 82bb 67a1 78ba
000001b0: c625 d5ba d998 adba f4c9 13bb 1f56 c5bb
000001c0: 36b0 44bb 3cf4 12ba 0352 aeba 75f3 d9ba
000001d0: f592 3abb 3085 0fbb 6463 7dba 8b80 67ba
000001e0: f7b7 623b e643 6b3b 1c2a 653b e495 833b
000001f0: be19 a13b 53a3 573d f429 1a3d 8700 2e3d
00000200: edb9 3d3d b035 453d 5875 5a3d 3156 253d
00000210: 830e 183d 231e 223d ccc2 0b3d 948d 703d
00000220: 9b69 693d 74ff 703d e837 5f3d c8f3 603d
00000230: a522 7b3d c1a1 7d3d c13e 883d d440 813d
00000240: cf3d 643d 1b8c 733c 0b5e 9a3c 72ac b43c
00000250: fa08 b73c 0a36 8d3c 4e45 c63b 1d59 853b
00000260: ec34 0b3a 2731 0d3b cd45 f3ba b40e 253b
00000270: 92ee b83b 06fa 6db9 5943 e939 07e5 80bb
00000280: e715 9e3b d28c c53b 8422 f33a 3dec 013b
00000290: 4411 20bb 4246 a33a ee95 883b 6ac2 11ba
000002a0: 3214 203a d055 2239 19da 553a b0d4 763a
000002b0: 1a9b 30b9 b881 1439 b8de e5ba ff28 b13b
000002c0: 05d6 2b3c 6bbb 5d3c 1f0c 3b3d c860 303d
000002d0: 353d de3a eb4a d33b f75d 6e3c 47b0 123d
000002e0: 1a31 ee3c b4d7 d33a a39d 703b 4df0 cc3b
000002f0: 5e5f 883c b548 523c 3955 da3a 4516 903a
00000300: 276b f23a f6d1 463b efd5 d5ba 4c0d 143c
00000310: 5571 c73c e3c9 d03c 2f22 bc3c 8d06 173b
00000320: 2996 3b3c 5bd8 f13b c376 8e3b 0556 ae3b
00000330: ba45 6f3b 505f a23a 9670 3b3b 8df0 1a3b
00000340: 5d91 fc3a 0a7d 9a3b 2a89 b039 792f be39
00000350: 7f07 02bb 60c1 de3a f493 b3b9 349a 223a
00000360: 6f54 043c 369f 733b d0e2 bc39 65db bc3a
00000370: 591d 6e3c 7cb1 ae3c 4e1f b23c 81ee 643c
00000380: 5d66 be3b 0ec0 5a3a c21f 2d3b b369 e3b9
00000390: c641 1cbb 7eb3 d4bb f8ef 443a 6156 fc3a
000003a0: 5c73 153b 88b4 6cbb 9d78 4cbb 1cf6 ce3b
000003b0: 219a 9238 1b83 543a fa33 16bb 4683 5dbb
000003c0: ba0e ba3b 8b00 2fba 8d8a 953b a0a8 b6b9
000003d0: 0fe1 49bb eb5a 473c 0e43 0d3c 3811 ab3b
000003e0: 3f84 2e3b 0a32 553b 6070 983b dacf 813b
000003f0: 9a39 f93b c386 b73b 124f 1bbb 832a 8d3b
0.016472034 0.013486019 0.011792535 0.0063409284 0.011366342 0.022551285 0.015376343 0.01848401
0.014039852 0.012418621 0.020559588 0.01805608 0.026510498 0.028061204 0.02384524 0.02331411
0.02164332 0.026755942 0.028353516 0.025705172 -0.0017268815 -0.001849694 -0.002206582 0.00027467415
0.0020909647 -0.004808788 -0.0018617848 -0.0004914892 -0.0007869568 -0.0011910453 -0.0013999824 -6.9567555e-05
-0.00079499854 -0.00032780273 -0.0010932868 -0.00064109085 -0.0006298205 -0.00397677 -0.0043760533 -0.0013034296
-0.00086141843 -0.00033206414 -0.00061728293 -0.00094073504 -0.00042216573 -0.0004175312 -0.0004895471 -0.002349061
-0.002409759 -0.0027348958 0.00727658 0.015676787 0.018105129 0.017029474 0.013426161 0.0044669923
0.0071477173 0.0071785953 0.006631492 0.0042755767 -0.00077793986 -0.00053539436 -0.0018045 -0.0022878845
-0.002141133 -0.0010815748 9.42457e-05 -0.0002742793 -0.00021556621 -0.0005512468 0.05163725 0.052166898
0.051395956 0.043717153 0.03882846 0.015008225 0.018864447 0.015771031 0.018649127 0.018709704
0.0149873905 0.010862976 0.0077967425 0.014166813 0.009649687 0.0110203205 0.01063492 0.009973703
0.007657743 0.009961059 0.013610858 0.013885445 0.017564464 0.017429031 0.015455833 0.016897358
0.018724492 0.02348896 0.023861244 0.01767665 -0.0017157745 -0.0025092522 -0.0033107786 -0.0007522644
-0.0006569499 -0.002224379 -0.0039721914 -0.00094845 -0.0016261868 -0.0013244405 -0.0022550793 -0.0060222293
-0.0030012256 -0.0005605852 -0.0013299588 -0.0016628342 -0.002846894 -0.0021899454 -0.00096659944 -0.0008831105
0.0034594515 0.0035898625 0.0034967726 0.004015671 0.004916399 0.052645992 0.037637666 0.04248097
0.04631989 0.048146904 0.053334564 0.0403654 0.037123214 0.039579522 0.03412132 0.05872877
0.05698548 0.05883737 0.054496676 0.054919988 0.061312336 0.06192184 0.06652594 0.06311193
0.055723008 0.014864947 0.018843671 0.022054885 0.022343148 0.017237682 0.006050742 0.004069461
0.0005310315 0.002154419 -0.0018560231 0.0025185766 0.005643674 -0.00022695222 0.000444914 -0.003933552
0.0048243883 0.00602875 0.0018549715 0.0019824647 -0.0024424354 0.0012456852 0.0041682636 -0.0005560281
0.0006106525 0.00015481492 0.0008157804 0.0009415848 -0.00016842448 0.00014162704 -0.0017537689 0.0054064984
0.010488038 0.013533453 0.045665856 0.043061048 0.0016955497 0.00644814 0.01454877 0.035812642
0.029076148 0.0016162307 0.0036715053 0.006254232 0.016647037 0.0128347175 0.0016657478 0.0010992965
0.0018495069 0.0030337549 -0.0016314368 0.009036373 0.024346033 0.025486892 0.022965519 0.0023044676
0.011449375 0.007380528 0.0043476536 0.005320313 0.0036510066 0.0012388024 0.0028601042 0.0023641915
0.0019269396 0.004714613 0.0003367153 0.00036274994 -0.0019840894 0.0016994886 -0.00034251774 0.00062027876
0.008076771 0.0037173755 0.00036027143 0.0014408646 0.014533364 0.021324866 0.021743443 0.013972879
0.0058105425 0.00083446584 0.0026416634 -0.00043375566 -0.0023842915 -0.0064911237 0.0007512565 0.0019251817
0.0022804355 -0.0036118347 -0.003119982 0.0063159596 6.990531e-05 0.00081066944 -0.0022919164 -0.003380017
0.005678025 -0.0006675801 0.0045636357 -0.0003483938 -0.0030804311 0.012167673 0.008621944 0.0052205585
0.0026629118 0.0032531046 0.004652068 0.0039615454 0.0076057436 0.0056007816 -0.0023698253 0.0043080463

momentum_buffer f4 [16]
00000000: 2733 cb3b aefd 913c 1419 6f3d 6624 4b3e
00000010: affe 2a3d a851 8e3d d7af 493d 7b70 7cbd
00000020: 646b 153d d949 eebb 8763 b53d ee20 583e
00000030: 0f37 263e dace 92bd bab9 79bc 692f 533d
0.006201166 0.01782116 0.058373526 0.19838104 0.04174679 0.069491684 0.04923996 -0.061630707
0.03647937 -0.007271987 0.08856874 0.21106312 0.1623194 -0.0716836 -0.015242035 0.051558886
